IswaraApp/app/src/main/assets/iswara_model.tflite (tflite, 446780 bytes, 6 tensors)

sequential/dense/BiasAdd/ReadVariableOp f4 [128]
0.061680973 0.03250955 0.09611641 0.06539376 -0.047407392 0.0710615 0.020721028 0.04555332
0.06939961 0.094475895 0.05979089 0.029454926 0.08030358 0.055283863 0.03507075 0.017597187
0.07856888 0.0834291 0.07387236 0.023595203 -0.0107565 0.04669534 -0.039858792 0.018466009
0.033168398 0.056596965 0.06644795 0.07437275 0.020325735 0.07321269 0.024595158 0.10861871
0.04841118 0.04730249 0.11131894 0.032750633 0.06673997 0.044731516 0.07921535 0.12665385
0.06815093 0.0011778807 0.0004093963 0.07883817 0.0953302 -0.04168723 0.059465814 0.043531433
0.012639163 0.093374565 0.03563989 0.0268006 0.05458071 0.06064096 -0.015086282 0.080990456
0.06721254 0.03998852 0.049864516 0.08018511 0.009079423 0.11836882 0.02953381 0.04804672
0.016290171 0.05416345 0.1020273 0.048280746 0.041992065 0.11249287 0.05811341 0.10024838
0.08674963 0.025668172 0.07825482 0.053472526 0.08874439 0.0009892293 0.08266889 0.08782367
0.047028545 0.050930005 0.029786292 0.045200434 0.017268417 -0.0064525525 0.04771983 -0.0044027832
-0.055254765 0.008824498 0.027673056 0.07156945 0.046127815 0.063242115 0.039596114 0.04768025
0.07584787 0.037940867 0.012499854 0.060631063 0.036131922 0.057181112 0.034418423 0.09299937
0.04789032 0.06039057 0.11078845 0.05122273 0.098202206 0.065454476 0.054713964 -0.017860016
0.049728755 0.010270173 0.050511923 0.03511737 0.095378526 0.07489549 0.007284416 0.05585222
0.09825439 0.06842768 0.065398626 0.05772486 0.05896409 0.06731407 0.04926956 -0.005273099
00000000: 30a5 7c3d bc28 053d aed8 c43d 2aed 853d
00000010: 412e 42bd b188 913d 25bf a93c 1e96 3a3d
00000020: 6221 8e3d 947c c13d 4be7 743d 754b f13c
00000030: 3476 a43d 5571 623d 59a6 0f3d fa27 903c
00000040: b9e8 a03d e0dc aa3d 644a 973d ba4a c13c
00000050: 083c 30bc 9d43 3f3d f942 23bd 0746 973c
00000060: 96db 073d 38d2 673d dd15 883d be50 983d
00000070: 2882 a63c 89f0 953d c97b c93c 7c73 de3d
00000080: cd4a 463d 41c0 413d 2ffb e33d 8725 063d
00000090: f7ae 883d 6538 373d a83b a23d 8cb1 013e
000000a0: b792 8b3d 1e63 9a3a 3ea4 d639 e875 a13d
000000b0: 7b3c c33d 3bc0 2abd 6d92 733d 044e 323d
000000c0: 7e14 4f3c 2a3b bf3d 22fb 113d ef8c db3c
000000d0: 0690 5f3d a862 783d 742c 77bc 53de a53d
000000e0: baa6 893d 01cb 233d bc3e 4c3d 1738 a43d
000000f0: dcc1 143c 5a6b f23d e4f0 f13c a3cc 443d
00000100: f772 853c 7eda 5d3d b0f3 d03d 08c2 453d
00000110: dfff 2b3d a962 e63d 5408 6e3d 064f cd3d
00000120: caa9 b13d 0f46 d23c 1044 a03d 0206 5b3d
00000130: 9ebf b53d 07a9 813a 4f4e a93d e5dc b33d
00000140: 01a1 403d fb9b 503d 6202 f43c 1724 393d
00000150: 7f76 8d3c ef6f d3bb de75 433d 3945 90bb
00000160: d252 62bd a194 103c 9bb2 e23c 0193 923d
00000170: 85f0 3c3d 1585 813d 892f 223d 5e4c 433d
00000180: 2156 9b3d e267 1b3d 30cc 4c3c 4758 783d
00000190: 11ff 133d be36 6a3d 55fa 0c3d 7476 be3d
000001a0: a428 443d 1a5c 773d 0ee5 e23d edce 513d
000001b0: 3d1e c93d ff0c 863d c01b 603d 2b4f 92bc
000001c0: 61b0 4b3d 3a44 283c 97e5 4e3d 3bd7 0f3d
000001d0: d155 c33d cf62 993d 1cb2 ee3b 4cc5 643d
000001e0: 9939 c93d d023 8c3d b7ef 853d e770 6c3d
000001f0: 5484 713d f6db 893d e1ce 493d f6c9 acbb

sequential/dense_2/BiasAdd/ReadVariableOp f4 [18]
0.15225136 -0.13173322 -0.04406451 -0.054385148 0.014894514 -0.17279576 -0.061755426 0.0096011935
-0.04683756 -0.18080504 -0.32860658 0.17418925 0.1741334 0.2324595 0.03830654 0.03144577
0.09629947 -0.11291061
00000000: c8e7 1b3e 13e5 06be fd7c 34bd f6c2 5ebd
00000010: 1f08 743c 5ff1 30be 42f3 7cbd 534e 1d3c
00000020: bed8 3fbd f524 39be 1f3f a8be ab5e 323e
00000030: 0750 323e dd09 6e3e 52e7 1c3d 48cd 003d
00000040: a838 c53d ae3d e7bd

sequential/dense_1/BiasAdd/ReadVariableOp f4 [64]
0.021067547 0.09983575 0.18628278 0.11735384 0.11878596 -0.050182145 0.04354195 0.18541737
0.09150348 0.062455077 0.05008035 0.011842299 0.008964238 0.03588561 -0.17134462 0.042690955
-0.034988865 0.052891903 0.15549986 -0.04885285 0.16482566 0.018854849 -0.09836564 0.2574827
0.0644826 0.03847691 -0.0018940308 -0.008863691 0.09532469 0.015595816 -0.05658094 0.015085976
0.1911676 -0.15210915 0.11282808 0.079376206 0.18730989 -0.10854884 -0.120796934 0.06323352
0.28391853 -0.04979451 -0.01095437 -0.045492213 -0.06809397 -0.057984293 0.04044518 0.23322652
0.08303906 0.104161434 0.037377402 0.045923103 0.08750668 0.097390026 0.118677035 -0.06322813
0.054524664 -0.06437847 0.017082274 -0.16245537 0.10829691 0.03284475 0.2730616 -0.031860646
00000000: d995 ac3c b076 cc3d eac0 3e3e 3657 f03d
00000010: 0e46 f33d cb8b 4dbd 0b59 323d 0dde 3d3e
00000020: 2d66 bb3d e5d0 7f3d 0e21 4d3d 3406 423c
00000030: bdde 123c cafc 123d f774 2fbe b6dc 2e3d
00000040: 7c50 0fbd 2ea5 583d 5b3b 1f3e ed19 48bd
00000050: 0fc8 283e 7c75 9a3c ed73 c9bd c6d4 833e
00000060: 740f 843d f799 1d3d 2141 f8ba 0439 11bc
00000070: 9739 c33d 9885 7f3c 6ac1 67bd 2b2b 773c
00000080: 70c1 433e 80c2 1bbe 6912 e73d fe8f a23d
00000090: 2ace 3f3e db4e debd 6264 f7bd 9380 813d
000000a0: c55d 913e 54f5 4bbd f579 33bc 0b56 3abd
000000b0: da74 8bbd f080 6dbd d8a9 253d efd2 6e3e
000000c0: 6210 aa3d 9752 d53d 0c19 193d dd19 3c3d
000000d0: b436 b33d 6c74 c73d f20c f33d c07d 81bd
000000e0: 4155 5f3d dcd8 83bd 20f0 8b3c b35a 26be
000000f0: c5ca dd3d 3788 063d bbce 8b3e 4f80 02bd

sequential/dense/MatMul f4 [128, 794]
-0.02503398 0.028653229 -0.009283884 0.09037173 -0.021580603 0.08043706 0.051133845 0.0656466
0.07210305 0.044557855 -0.021725724 -0.03885414 0.128765 0.0005912914 0.07100378 -0.006670937
0.04587957 0.04099208 -0.06429623 -0.035225254 -0.11275827 -0.013022281 -0.034526665 -0.07933454
0.117792405 0.023909643 0.16195217 0.026796423 0.026085755 0.08168085 0.16594523 -0.039481714
0.045064636 -0.038974654 0.046148464 0.019973911 0.0037304917 0.06277821 -0.07287461 -0.03385567
0.017105352 -0.019788662 -0.045357272 0.02449087 0.05078534 -0.07283218 -0.06133955 0.048767395
0.14272389 0.011599568 -0.060809128 0.051366065 -0.034518443 0.021176877 -0.08962709 0.08729197
0.082593754 0.14739998 0.07277694 0.079569675 0.13252749 -0.06587435 -0.07908496 0.01392837
0.052942716 -0.017062787 0.018547194 0.05385249 -0.01084977 0.043396972 0.11383514 0.050139427
-0.0657005 0.11968204 0.04245076 0.069993496 0.17043367 0.08662444 0.00035202695 0.10727094
0.16313714 0.15614666 0.1648638 -0.0086696455 0.0048651756 0.14060432 -0.05317649 0.0076048546
-0.050205152 0.15862 0.13202287 -0.004629228 0.015163132 0.07046728 0.12031051 -0.044822894
0.04496964 -0.07971774 0.093811065 0.006893314 0.012717905 0.10861376 0.07290993 0.09614843
0.041700844 0.24853143 0.04278365 -0.07974699 0.098611474 0.061497673 0.10571382 -0.0013449758
-0.05960229 0.12048108 0.016852273 0.03580796 0.08733848 0.050248403 -0.05216257 0.074741326
-0.10291345 0.059313055 0.06945899 0.044257257 0.04264961 0.21304509 -0.020864297 0.22211178
0.07520563 0.060367357 0.08379854 0.033851802 0.04914172 -0.07234549 -0.064209685 0.102298416
-0.0441622 -0.006776429 0.03926349 -0.034725804 -0.019933943 -0.061111674 0.1564617 0.026634065
-0.07640346 0.019192947 -0.038844083 0.033764265 0.1473881 0.060115337 0.059456643 0.15214042
0.11569993 0.119815096 0.031001452 0.036431503 0.10108417 0.04648771 0.0017724794 -0.026303295
0.15927847 0.11937198 0.007655169 0.025688864 0.10820532 0.056762535 0.052723814 -0.084988385
0.006383761 0.100343645 0.1207872 0.122504175 0.069004275 0.117187925 0.10374883 0.013581129
0.18098398 0.11452786 0.09551958 -0.052138686 0.085384496 0.0005542344 0.117837235 0.075999245
0.007155736 0.1022655 0.18420047 0.09074579 0.12243935 0.039771803 0.04089839 0.049562193
0.061094854 0.09853544 -0.0023319605 0.12748827 -0.02395923 0.1552533 -0.110379815 -0.07324423
0.06400962 -0.047226213 0.10379735 -0.012407944 -0.052977487 0.030471629 0.07682171 0.08350313
0.03541269 0.14164811 0.090419024 0.11032922 0.02628367 0.05570778 0.052834563 -0.00508814
-0.029036954 -0.019580804 0.015529389 -0.077937685 0.064865164 -0.058459762 0.16101964 0.0024791763
-0.045380633 0.20202768 -0.06941647 -0.011528309 0.10286396 -0.054796197 0.08531658 -0.117537156
-0.112696394 0.0741101 0.20019159 0.073758155 0.03488997 0.04879964 -0.029950084 0.057063464
0.24385653 0.19562474 0.09049071 0.039455418 0.05219781 0.10434862 0.0649204 -0.029059773
-0.033813663 -0.056256387 -0.043728616 -0.068305984 0.13772431 0.03581194 0.048768304 0.04508608
00000000: 1014 cdbc 2dba ea3c 6f1b 18bc d014 b93d
00000010: cec9 b0bc 2fbc a43d b971 513d ba71 863d
00000020: c4aa 933d 4c82 363d 25fa b1bc 8525 1fbd
00000030: f9da 033e e500 1b3a 6e6a 913d e097 dabb
00000040: 37ec 3b3d 50e7 273d bead 83bd 5b48 10bd
00000050: cfed e6bd 685b 55bc d56b 0dbd 267a a2bd
00000060: 253d f13d 28de c33c cad6 253e 2c84 db3c
00000070: cbb1 d53c 4a48 a73d 8ced 293e 94b7 21bd
00000080: b295 383d e3a3 1fbd 2c06 3d3d 54a0 a33c
00000090: 447b 743b dd91 803d 493f 95bd 3eac 0abd
000000a0: 8620 8c3c d51b a2bc 8cc8 39bd 14a1 c83c
000000b0: 4a04 503d 0a29 95bd 2e3f 7bbd 52c0 473d
000000c0: 3626 123e 1d0c 3e3c fe12 79bd 3965 523d
000000d0: 3663 0dbd 217b ad3c 688e b7bd 22c6 b23d
000000e0: ea26 a93d 05f0 163e 140c 953d 6df5 a23d
000000f0: 49b5 073e 22e9 86bd 4cf7 a1bd d133 643c
00000100: 76da 583d 42c7 8bbc 49f0 973c 6e94 5c3d
00000110: 3cc3 31bc 06c1 313d 6622 e93d 005f 4d3d
00000120: fc8d 86bd db1b f53d d9e0 2d3d c058 8f3d
00000130: 2a86 2e3e 2868 b13d 4290 b839 deb0 db3d
00000140: 6c0d 273e e9e4 1f3e 0ed2 283e 210b 0ebc
00000150: 0d6c 9f3b 94fa 0f3e 97cf 59bd 2532 f93b
00000160: eba3 4dbd 486d 223e 0131 073e c7b0 97bb
00000170: c96e 783c 2651 903d 5b65 f63d 3698 37bd
00000180: 1632 383d 0e43 a3bd 0420 c03d 4fe1 e13b
00000190: c35e 503c e470 de3d cd51 953d 78e9 c43d
000001a0: 81ce 2a3d 067f 7e3e e93d 2f3d 6452 a3bd
000001b0: d0f4 c93d fce4 7b3d 7d80 d83d e649 b0ba
000001c0: 8821 74bd c9be f63d c70d 8a3c 5eab 123d
000001d0: 84de b23d 45d1 4d3d 6ba8 55bd fb11 993d
000001e0: 49c4 d2bd 3ff2 723d 8440 8e3d 1947 353d
000001f0: 5cb1 2e3d 7e28 5a3e 9aeb aabc 4571 633e
00000200: 6905 9a3d c343 773d 929e ab3d 30a8 0a3d
00000210: d448 493d df29 94bd 5e80 83bd d581 d13d
00000220: 6ce3 34bd ce0c debb c1d2 203d a53c 0ebd
00000230: 824c a3bc 3c50 7abd 7f37 203e af2f da3c
00000240: 6b79 9cbd 873a 9d3c f91a 1fbd 664c 0a3d
00000250: e8ec 163e 803b 763d cf88 733d b3ca 1b3e
00000260: 16f4 ec3d 9e61 f53d c2f6 fd3c 3339 153d
00000270: 3805 cf3d e669 3e3d 8a52 e83a 027a d7bc
00000280: e519 233e 4c79 f43d 36d8 fa3b 7471 d23c
00000290: c09a dd3d d57f 683d edf4 573d 640e aebd
000002a0: de2e d13b f880 cd3d 485f f73d 78e3 fa3d
000002b0: 1d52 8d3d 3900 f03d 447a d43d 6283 5e3c
000002c0: dd53 393e 958d ea3d c59f c33d 608f 55bd
000002d0: 11de ae3d 0a4a 113a a654 f13d 7ea5 9b3d
000002e0: aa7a ea3b 9370 d13d 0c9f 3c3e eed8 b93d
000002f0: 7bc1 fa3d c2e7 223d 1285 273d ba01 4b3d
00000300: 993e 7a3d f3cc c93d ced3 18bb 498c 023e
00000310: 2646 c4bc b9fa 1e3e d00e e2bd 1201 96bd
00000320: 7a17 833d 4670 41bd b493 d43d b04a 4bbc
00000330: ecfe 58bd a39f f93c b354 9d3d b003 ab3d
00000340: e60c 113d 340c 113e 9c2d b93d 49f4 e13d
00000350: da50 d73c d72d 643d 0e69 583d 69ba a6bb
00000360: e8de edbc ec67 a0bc fa6e 7e3c cb9d 9fbd
00000370: 07d8 843d 8173 6fbd 55e2 243e ad79 223b
00000380: 0be1 39bd 58e0 4e3e 392a 8ebd 3ce1 3cbc
00000390: 57aa d23d fa71 60bd 76ba ae3d 52b7 f0bd
000003a0: 5ecd e6bd 09c7 973d 06ff 4c3e 840e 973d
000003b0: c9e8 0e3d 22e2 473d e159 f5bc 61bb 693d
000003c0: 87b5 793e da51 483e 3253 b93d 019c 213d
000003d0: 5fcd 553d bbb4 d53d fdf4 843d c30e eebc
000003e0: 3280 0abd 196d 66bd c71c 33bd 02e4 8bbd
000003f0: 9a07 0d3e 8aaf 123d 46c1 473d 2eac 383d

sequential/dense_1/MatMul f4 [64, 128]
0.19227672 -0.00049732695 0.16376081 -0.027886858 0.43163943 -0.110826306 0.22564155 -0.42286295
0.0056771305 0.096601434 -0.016649434 0.019101426 -0.06155541 -0.19217058 0.38121954 -0.28557622
-0.49538302 0.28368276 0.16227363 -0.08769294 0.054311447 0.26929653 0.058068898 -0.0475131
-0.21194997 0.03707687 -0.04437505 -0.21585391 0.20223765 0.003259063 -0.14355244 0.21938254
0.35763612 0.40732425 0.18911032 -0.09827144 0.117798425 -0.24000572 0.018146902 -0.19343257
0.06338452 0.16430056 -0.0052673076 0.21602951 0.21651246 0.04975224 0.2741449 0.26099235
0.1271104 0.015927212 0.30728918 -0.014429819 -0.18488796 -0.5380626 0.12327938 0.17057638
-0.026723024 -0.023918249 -0.17047784 -0.3240779 0.170402 -0.06218432 0.38857597 -0.23468675
-0.31352735 0.4397066 0.33097747 0.36774325 0.105085745 0.039852485 -0.0024442493 -0.2610652
-0.04801262 0.28901857 0.039059382 0.03041895 -0.06272738 -0.1869543 -0.36701977 -0.09679662
-0.07682764 -0.05853481 -0.25705034 0.033566177 -0.021165293 -0.164775 0.09982774 0.22286108
-0.0029740604 -0.24936424 0.70622796 -0.27354673 0.22598788 -0.14596742 0.015839882 0.23351082
-0.13110231 -0.03772443 -0.22969387 -0.37398797 0.2567205 0.15885635 0.26896328 -0.56661016
0.06247993 -0.4350329 0.065436184 0.40883306 -0.02637833 -0.031462558 0.42063218 -0.1437032
0.11146115 0.08707835 -0.17281106 -0.10880204 0.29851708 0.4234618 -0.17200395 -0.49558854
0.07515297 -0.14766356 -0.0055893 -0.20633332 0.12112696 -0.086025566 0.1168643 0.17127542
0.081902914 -0.106741756 0.09585359 -0.2545381 -0.104761355 -0.22925231 -0.008092905 0.028457912
0.33306867 -0.11794857 0.112026356 0.041065317 0.4145722 0.4005165 0.14000839 0.19524023
-0.008924392 -0.07224919 0.4426887 0.26212132 0.028653882 0.3844681 -0.032059986 -0.10833126
0.15044889 -0.12399353 -0.20545085 -0.043131307 0.023900442 0.12835737 0.1241543 0.20397629
-0.14705886 0.07288444 -0.24624327 -0.07658337 0.17052877 0.08206935 -0.32190764 0.41949946
0.23546553 -0.16487028 0.004668397 0.115282804 0.6945598 -0.41429636 -0.19169274 -0.015381245
-0.25813317 0.3704207 -0.13549617 -0.046359807 0.43123555 0.3869838 -0.07029259 0.109953046
0.08955256 -0.26791778 -0.3375383 -0.15177801 0.026014464 0.37708056 0.04650432 0.20700714
0.06908215 0.20444272 0.30951765 0.13927789 -0.23911136 0.30957836 0.17807604 0.12893033
-0.11685326 -0.15297815 0.51803106 -0.13386348 0.33049718 -0.14789046 -0.08792172 0.014513772
-0.07263147 0.38030502 -0.42587084 -0.25632787 -0.03837983 -0.0806225 -0.42712697 0.4353973
-0.0019604394 0.4446747 0.25762835 -0.19643869 -0.14969905 -0.12771948 -0.17504671 -0.03653796
0.34431693 -0.19772542 -0.42609823 -0.07444457 0.0007622917 -0.112406865 0.04841305 0.08306846
-0.20874538 0.23288478 0.27312258 0.111527085 0.14981118 0.39648074 -0.18896207 -0.07871332
-0.40320945 -0.018955825 0.012812621 -0.17948075 0.19536804 0.1859436 0.019042443 0.17280526
0.12566079 -0.112615794 0.13049537 -0.14516032 -0.10180843 0.37692752 -0.054497786 -0.17246355
00000000: 30e4 443e 0c5f 02ba eab0 273e fb72 e4bc
00000010: d8ff dc3e e7f8 e2bd 940e 673e 7e81 d8be
00000020: 3907 ba3b f9d6 c53d 6564 88bc 987a 9c3c
00000030: 8721 7cbd 5dc8 44be 352f c33e 0c37 92be
00000040: d8a2 fdbe de3e 913e 0f2b 263e 5b98 b3bd
00000050: ae75 5e3d 3ce1 893e a7d9 6d3d 199d 42bd
00000060: 6a09 59be ebdd 173d 9dc2 35bd cf08 5dbe
00000070: 6317 4f3e 0196 553b 69ff 12be d1a5 603e
00000080: 151c b73e ce8c d03e 23a6 413e 8942 c9bd
00000090: 4d40 f13d 0fc4 75be d0a8 943c 3013 46be
000000a0: becf 813d 683e 283e 6199 acbb d736 5d3e
000000b0: 71b5 5d3e 01c9 4b3d b85c 8c3e caa0 853e
000000c0: 3b29 023e c979 823c 0255 9d3e 0c6b 6cbc
000000d0: 4553 3dbe 78be 09bf e679 fc3d 93ab 2e3e
000000e0: 3eea dabc 34f0 c3bc be91 2ebe 8aed a5be
000000f0: dd7d 2e3e fcb4 7ebd 6ef3 c63e b951 70be
00000100: a886 a0be 3921 e13e e175 a93e d848 bc3e
00000110: 3237 d73d 5c3c 233d b32f 20bb 57aa 85be
00000120: e2a8 44bd 3efa 933e bbfc 1f3d 2931 f93c
00000130: 3677 80bd f370 3fbe 04ea bbbe 4e3d c6bd
00000140: cf57 9dbd 32c2 6fbd 1a9c 83be b07c 093d
00000150: d662 adbc c7ba 28be 7c72 cc3d b235 643e
00000160: 74e8 42bb 5759 7fbe 5bcb 343f 510e 8cbe
00000170: 5e69 673e 7c78 15be a4c2 813c 761d 6f3e
00000180: af3f 06be ef84 1abd df34 6bbe 5a7b bfbe
00000190: df70 833e 3dab 223e 8eb5 893e 5d0d 11bf
000001a0: f5ea 7f3d a2bc debe 6803 863d 9152 d13e
000001b0: 5e17 d8bc e2de 00bd 1a5d d73e ef26 13be
000001c0: be45 e43d 2256 b23d 62f5 30be 9bd3 debd
000001d0: 3bd7 983e fccf d83e ce21 30be c8bd fdbe
000001e0: cde9 993d 1e35 17be 7226 b7bb 0b49 53be
000001f0: 6911 f83d 2c2e b0bd 8d56 ef3d d362 2f3e
00000200: b7bc a73d 6c9b dabd e34e c43d d152 82be
00000210: 1f8d d6bd 1ec1 6abe 1b98 04bc 9120 e93c
00000220: fa87 aa3e 058f f1bd 136e e53d 1b34 283d
00000230: cf42 d43e 8010 cd3e 5c5e 0f3e 0eed 473e
00000240: 9d37 12bc 62f7 93bd 18a8 e23e c434 863e
00000250: 8cbb ea3c 01d9 c43e 5551 03bd c8dc ddbd
00000260: 460f 1a3e 52f0 fdbd b561 52be 74aa 30bd
00000270: dcca c33c 1d70 033e 9c44 fe3d 29df 503e
00000280: 9996 16be 7044 953d 3227 7cbe bed7 9cbd
00000290: 189f 2e3e fa13 a83d 14d1 a4be a2c8 d63e
000002a0: e01d 713e c1d3 28be 5af9 983b 6419 ec3d
000002b0: acce 313f a71e d4be 1a4b 44be 9e01 7cbc
000002c0: 082a 84be c8a7 bd3e 82bf 0abe c8e3 3dbd
000002d0: e8ca dc3e be22 c63e 90f5 8fbd 102f e13d
000002e0: 5567 b73d 852c 89be d2d1 acbe b26b 1bbe
000002f0: 491c d53c b410 c13e 507b 3e3d aef9 533e
00000300: f17a 8d3d 6f59 513e 1979 9e3e dd9e 0e3e
00000310: 9cd9 74be 0e81 9e3e 9159 363e 5006 043e
00000320: c350 efbd 4ea6 1cbe af9d 043f 8213 09be
00000330: ed36 a93e 9970 17be 4e10 b4bd 2ccb 6d3c
00000340: cfbf 94bd 57b7 c23e be0b dabe 683d 83be
00000350: 2b34 1dbd 691d a5bd 63b0 dabe 65ec de3e
00000360: b77a 00bb 67ac e33e dde7 833e 3927 49be
00000370: b54a 19be e5c8 02be 723f 33be d4a8 15bd
00000380: 4f4a b03e 8878 4abe 8c29 dabe 6576 98bd
00000390: 88d4 473a 9235 e6bd c34c 463d cc1f aa3d
000003a0: 59c1 55be 5979 6e3e b9d6 8b3e 5068 e43d
000003b0: 1a68 193e 86ff ca3e 467f 41be 7334 a1bd
000003c0: 7871 cebe 3f49 9bbc 07ec 513c cdc9 37be
000003d0: 8f0e 483e 0068 3e3e e6fe 9b3c ddf3 303e
000003e0: 39ad 003e 1ca3 e6bd 94a0 053e e8a4 14be
000003f0: f080 d0bd a5fc c03e 1239 5fbd 499a 30be

sequential/dense_2/MatMul f4 [18, 64]
-0.15086533 0.22697906 0.1624464 0.064662084 -0.02774763 -0.112347595 0.08450055 -0.34957665
-0.2827296 0.21956481 -0.57926476 -0.5954569 0.2085094 -0.1601641 -0.5135176 0.14428094
0.25314477 0.30971953 0.1469509 -0.3747748 -0.15015756 -0.2504531 0.12678467 -0.15172592
0.3374715 -0.054194923 -0.12407311 0.16359499 -0.8130112 -0.23792388 0.2303712 -0.46637976
0.24071258 -0.72330385 0.09513255 -0.1615355 0.17048576 0.06374843 -0.20733601 -0.42589128
-0.06537837 -0.12210084 -0.23203981 0.18707214 0.18015209 0.113752626 0.12657686 0.14205764
-0.31146905 0.13100164 0.18651184 0.29696083 0.021365622 0.10508457 0.05885575 -0.40404627
0.063504085 -0.11868567 -0.013924449 -0.3747248 0.060256243 0.10463438 0.10256919 -0.15601787
-0.7728239 0.40864074 0.34020233 -0.6683659 0.3015934 0.29242614 -0.36482486 0.38120794
-0.39940372 0.092104495 -0.963903 -0.69336295 -0.5939251 -0.6710884 0.3576101 -0.2943866
0.24545234 -0.59143436 -0.37156314 0.20877324 -0.6769133 0.3247933 -0.8899264 -0.2778306
-0.42195928 0.2434361 -0.8019111 0.05201808 -0.025192926 0.32441518 0.2841391 0.36810693
0.0025972025 0.32338962 -0.9280796 -0.1592654 -0.29166386 -0.34785396 0.29969406 -0.39797497
-0.9273983 -0.06249077 -0.5959907 0.33115306 -0.44323352 0.21294571 0.36578882 -0.5071647
-0.58602387 0.1859307 -0.29100704 0.25330004 -0.76438314 0.26612684 -1.0185187 0.2339287
0.23293535 -0.40471512 -1.1195942 0.23115523 -0.78391534 0.044184394 -0.47943887 0.27050772
0.3897478 0.22493015 0.33947158 -0.21688548 -0.38692722 -0.068526156 0.26836297 -0.51444083
0.29214942 0.078271866 0.017577467 -0.6493689 0.2650225 0.25039157 0.23149647 -0.22620517
-0.57208735 0.12127993 -0.5813518 -0.12694272 0.010581106 -0.79107964 -0.68167466 0.21015474
-0.42341736 0.007234835 -0.2839241 -0.5462011 -0.8030446 0.40532815 0.011570822 0.058647577
-0.17020194 -0.3611436 -0.41749638 0.31530535 0.09876828 -0.32845157 0.18275905 0.4358877
0.1427377 0.21584597 -0.49735636 -0.6131564 -0.6137282 -0.41369665 0.3381667 -0.46391097
0.26133597 0.19688243 0.26335013 -0.35424906 -0.4202537 -0.7523098 -0.37570402 0.34823695
-0.67749363 0.32867754 -0.5417 -0.063235946 0.12721843 -0.5115748 0.16247752 0.3020536
0.31371635 0.26242456 -0.5142789 0.19962123 -0.8880023 0.16996093 0.03843681 -0.47230098
0.066963784 -0.5499837 0.30793685 0.3167773 -0.9251184 0.16322532 0.14556578 -0.74709314
-0.26955265 -0.99278927 0.3721062 -0.7645426 0.11400371 -0.6500706 0.08903613 0.27352148
-0.23529297 0.024064474 -0.574015 0.39472815 -0.11954987 -0.5092084 0.32120398 -0.024357755
-0.80792046 0.41490787 0.44805673 -0.45494637 -0.07658308 -0.38170058 0.24151373 -0.4320659
0.2013989 -0.22352082 -0.44697368 0.30792084 0.22256207 -0.37751812 -0.20900242 -0.71325785
0.1609343 -0.40259057 -0.8242351 -0.85281366 -0.72116375 0.33732852 0.2745374 -0.25748298
-0.13791671 0.26296034 -0.86982596 -0.5385372 0.012930417 0.11822262 0.0072880103 -0.531541
00000000: 717c 1abe 336d 683e 5958 263e 8e6d 843d
00000010: ff4e e3bc 7f16 e6bd a00e ad3d b6fb b2be
00000020: efc1 90be 99d5 603e b24a 14bf dd6f 18bf
00000030: 7d83 553e 0f02 24be e475 03bf 62be 133e
00000040: 319c 813e 8f93 9e3e 4c7a 163e 7ce2 bfbe
00000050: e7c2 19be 643b 80be d7d3 013e 0a5e 1bbe
00000060: 10c9 ac3e 7ffb 5dbd 0b1a febd 7285 273e
00000070: 8121 50bf 51a2 73be 6ee6 6b3e 54c9 eebe
00000080: 5c7d 763e 712a 39bf dbd4 c23d 9069 25be
00000090: d293 2e3e 898e 823d e44f 54be 6c0e dabe
000000a0: 18e5 85bd 0110 fabd d89b 6dbe d78f 3f3e
000000b0: ca79 383e 23f7 e83d 5d9d 013e 8f77 113e
000000c0: df78 9fbe 4b25 063e f6fc 3e3e 400b 983e
000000d0: f506 af3c 9436 d73d ba12 713d 27df cebe
000000e0: 6e0e 823d 7911 f3bd 5f23 64bc eedb bfbe
000000f0: 40cf 763d 8d4a d63d cc0f d23d 26c3 1fbe
00000100: cad7 45bf 5c39 d13e 002f ae3e 071a 2bbf
00000110: 736a 9a3e e1b8 953e 53ca babe b02d c33e
00000120: a57e ccbe 48a1 bc3d 59c2 76bf 3c80 31bf
00000130: 7a0b 18bf 73cc 2bbf ac18 b73e d7b9 96be
00000140: dc57 7b3e 3e68 17bf 863d bebe a7c8 553e
00000150: 314a 2dbf 4f4b a63e 37d2 63bf d03f 8ebe
00000160: 0c0b d8be 5047 793e 0c4a 4dbf e910 553d
00000170: 6561 cebc bf19 a63e ae7a 913e 8378 bc3e
00000180: d435 2a3b 5393 a53e a096 6dbf 7816 23be
00000190: f754 95be ea19 b2be 8071 993e 60c3 cbbe
000001a0: fa69 6dbf 52f6 7fbd d992 18bf e58c a93e
000001b0: 81ef e2be 710e 5a3e ac48 bb3e 8cd5 01bf
000001c0: a905 16bf 9e64 3e3e e0fe 94be 8bb0 813e
000001d0: 9dae 43bf c741 883e d25e 82bf 018b 6f3e
000001e0: 9b86 6e3e d236 cfbe dd4e 8fbf f5b3 6c3e
000001f0: adae 48bf b2fa 343d 0379 f5be fd7f 8a3e
00000200: 068d c73e 1754 663e 38cf ad3e 3a17 5ebe
00000210: 531b c6be 7157 8cbd df66 893e 65b2 03bf
00000220: 9c94 953e 004d a03d 9ffe 8f3c 0a3d 26bf
00000230: 07b1 873e 5333 803e 690d 6d3e 54a2 67be
00000240: 5174 12bf 9d61 f83d 79d3 14bf 46fd 01be
00000250: 605c 2d3c 3284 4abf 3b82 2ebf ce32 573e
00000260: 29ca d8be 3212 ed3b 805e 91be d6d3 0bbf
00000270: 5594 4dbf 2c87 cf3e 8c93 3d3c 7138 703d
00000280: 6b49 2ebe d0e7 b8be 16c2 d5be b46f a13e
00000290: 0647 ca3d ce2a a8be 3025 3b3e ac2c df3e
000002a0: d529 123e ba06 5d3e 7ea5 febe d1f7 1cbf
000002b0: 4b1d 1dbf 0cd0 d3be 3024 ad3e bd85 edbe
000002c0: d4cd 853e 8c9b 493e d4d5 863e 2260 b5be
000002d0: 7e2b d7be 6097 40bf 475c c0be 1d4c b23e
000002e0: 3970 2dbf 6c48 a83e daac 0abf d981 81bd
000002f0: 8c45 023e 91f6 02bf 8260 263e c5a6 9a3e
00000300: 6e9f a03e 835c 863e c8a7 03bf 8269 4c3e
00000310: 1e54 63bf 3d0a 2e3e eb6f 1d3d 6fd1 f1be
00000320: 4f24 893d bbcb 0cbf e6a9 9d3e a230 a23e
00000330: 8fd4 6cbf 8a24 273e 320f 153e 7f41 3fbf
00000340: ce02 8abe 7027 7ebf b484 be3e 10b9 43bf
00000350: c77a e93d 076b 26bf 9358 b63d 020b 8c3e
00000360: a4f0 70be dc22 c53c a6f2 12bf cf19 ca3e
00000370: 90d6 f4bd 7b5b 02bf d974 a43e ea89 c7bc
00000380: e0d3 4ebf ce6e d43e b167 e53e bbee e8be
00000390: 97d7 9cbd 426e c3be 604f 773e be37 ddbe
000003a0: 833b 4e3e a4e2 64be bcd9 e4be cda7 9d3e
000003b0: 50e7 633e 0e4a c1be bb04 56be 1198 36bf
000003c0: f6cb 243e 5a20 cebe 1201 53bf ff51 5abf
000003d0: 309e 38bf 53b6 ac3e 2b90 8c3e cfd4 83be
000003e0: 0a3a 0dbe bda2 863e eaac 5ebf 93dd 09bf
000003f0: 1ada 533c b31e f23d 43d0 ee3b 1213 08bf
